model/model.pth (torch, 18847 bytes, 4 tensors)

linear1.weight f4 [256, 12]
00000000: dbfb 313e 31db 14be 8db7 48be 0c1e 823d
00000010: 39d4 8fbe 4208 a7bd 6a47 90be a15f 9e3e
00000020: ff1d 55be 458a 16be 4036 7bbe 4c05 6b3e
00000030: 1d99 653e a989 0ebe 7cdf 303d 85cf cebd
00000040: 03b0 bdbd a62a 57be 6491 603d 2924 813e
00000050: 5f22 263d 0206 65be caa4 c4bd d7d6 9e3e
00000060: 7952 a73d 6c51 e03d fc3b 933e f651 01be
00000070: 8a85 413e 8d33 05be 01cd 5cbe 7021 15ba
00000080: c07b 62bc af4e e1bd 96cb 1b3e 7418 d2bd
00000090: 976c 853d e3a0 efbd 1472 823e 55f7 a1bd
000000a0: 03b9 223b 8dab 693e 3771 ed3d e793 01be
000000b0: ef21 413d 3ff8 1c3e a0bb d4bd c490 103d
000000c0: 9500 c8bc 8f84 b4bd 6d4a d13d 421b 39be
000000d0: f8a4 7dbe bb24 a43e 02d4 613e 6ae9 67be
000000e0: db26 853e eaa3 97bd ee9b 58be 0f47 603e
000000f0: ff40 84be c825 70be 0710 ed3c ac1b 29bd
00000100: d8ba 3e3e 45ce dcbc afdd e3bd bf11 243e
00000110: 5f51 31bd c15e de3d 0983 28bd 843d 56be
00000120: 313b 983e 1ebf 25be 8280 3cbe 4dee 4f3e
00000130: 9738 743e 0bab 893e 13cd 793e 3083 83be
00000140: 8981 8cbe 9caa 83be 85d4 4d3d 7b89 3d3e
00000150: c61c 983d 0e9a 923d 3a71 48be f598 f23d
00000160: b9eb 93be 292e 923e 25df 893e 641f a9bd
00000170: 5de7 62be 9b63 723e 37f7 973e da6a 65ba
00000180: 8ff7 183e b157 21be 193f 6abe 1502 4abe
00000190: 370a 503e 8be7 d73c 747d 86bd 1ae9 ddbd
000001a0: 6c0c 71bd 0274 38be 87a3 c03c 4467 1c3e
000001b0: 5211 413e 3c05 153e 1f21 db3d d0b7 12be
000001c0: e2ca 783e 5805 b3bc c5d8 06be 23f9 80be
000001d0: 0e71 92bb 2d70 b33d 7b89 95be 39b4 143e
000001e0: a460 923d f778 1abe b3a8 89be b756 76be
000001f0: 6bd8 923e 5b5c 62be 4920 213d c5a1 36bd
00000200: 25b4 7b3e d6a5 c1bd 2c45 47be 39f4 77be
00000210: 8be8 f73d 2b25 4dbe b74e ad3d d18f 8fbe
00000220: fd37 043d 1ba0 0cbe 1104 13be 8b83 52be
00000230: 247c 74be aa3b e13d 897b 85be 6f23 af3c
00000240: 021e d3bd c5b8 95be 67d9 86be 6dc5 95bc
00000250: 7513 2cbe 1c1f 583e 602c 0abe 81f8 373d
00000260: a9b7 763e 8619 d8bd 5c0e 9c3d 0505 34be
00000270: 8fc5 183d 7d43 083d f036 803e b738 26be
00000280: e132 c33c 0a0e 883e 5378 403e 4031 0b3d
00000290: 79af 45be 6464 62be 4051 ffbd f091 f03d
000002a0: 3a41 9a3c 496a a33d 42af 7bbc 7e5f 85bd
000002b0: d09d 563d 4953 a33e eec0 26bd 1eb0 7abe
000002c0: 133a 823e a057 47bd 15ff 0b3d c0e6 83be
000002d0: 6f7d 82be 3784 b1bd 257e 9fbd f7f9 88be
000002e0: 2cc8 5a3d ea1f 173e c13e b8bd e3ed fdbb
000002f0: e2f5 81bb 429b 613d 2ea0 cbbd 029a 89be
00000300: 5486 13be 2ae1 f8bd f676 923e 325c 7fbe
00000310: 4a44 89bc 0028 40bd 02c7 763e 0748 b43c
00000320: 2035 6bbe ee91 f0bd 4796 1c3e e24f 60bd
00000330: 58ce 4ebe 966e 8bbe 6b95 0c3e 7cb0 5bbd
00000340: 2688 b6bd 0d47 023e 7274 93be 4cb1 853e
00000350: 12db 7fbd 100a 45be 7e9d ddbd 67b8 59be
00000360: 46e7 3cbd 34b5 bd3c b9cf 213e d366 8fbe
00000370: 6a49 ffbd 09f1 dfbc 599d 373e 422d efbd
00000380: 4085 c83d 99cb 88be 7a8a eebd d6a3 2d3d
00000390: 102a 813e 2e1d 71be 5bd7 173e 3fd9 2a3e
000003a0: edd9 ad3c d2b2 ed3c 8eea 7bbd 6b59 0c3e
000003b0: ee72 bcbc 7726 073d b41c 933d e89d 0e3e
000003c0: b0ee 65be bedd 953e 15af 913e 832e 2fbe
000003d0: 1f08 56bd a5a0 20bc 91f7 19be d5d4 403d
000003e0: fdb2 2bbe 6398 5a3e a1f4 76be b27b 483e
000003f0: 2c36 443e d340 5cbe 5087 a5be 509e 04bd
0.17381231 -0.1453674 -0.19601269 0.06353387 -0.280916 -0.08155872 -0.28179485 0.30932334
-0.20812224 -0.14701183 -0.24532413 0.2295124 0.2242169 -0.139197 0.04318188 -0.10098175
-0.09262087 -0.21012363 0.054826155 0.252229 0.040560123 -0.22365573 -0.096017435 0.31023285
0.08170027 0.1095303 0.28756702 -0.12628922 0.18898597 -0.13007946 -0.21562578 -0.00056888815
-0.01382345 -0.11001336 0.1521438 -0.1025857 0.065148525 -0.117006086 0.2547766 -0.07908503
0.0024829514 0.22819348 0.1159386 -0.12654077 0.047151502 0.15329073 -0.10387349 0.03529431
-0.02441434 -0.08814346 0.10219274 -0.18076804 -0.24769962 0.32059273 0.22053531 -0.22647634
0.26006207 -0.07404311 -0.21153232 0.21902107 -0.25830838 -0.23451912 0.028938306 -0.041286156
0.18625963 -0.026953826 -0.11126267 0.16022395 -0.043290492 0.108579166 -0.04114059 -0.20921904
0.2973266 -0.16186187 -0.18408397 0.20305748 0.23849712 0.26888308 0.24394636 -0.25686026
-0.27442577 -0.25716102 0.050251503 0.18509476 0.07427363 0.0715829 -0.19574443 0.118455805
-0.2889078 0.28550842 0.26928058 -0.082579404 -0.2215857 0.23670809 0.29680797 -0.0008751579
0.14938186 -0.15756108 -0.22875632 -0.19727357 0.20316397 0.026355525 -0.06566897 -0.10835476
-0.058849737 -0.18013003 0.023515476 0.15273768 0.18854263 0.14552778 0.10699677 -0.14327931
0.24296144 -0.021853134 -0.13168629 -0.25190076 -0.0044690436 0.0876163 -0.29206452 0.14521874
0.07147339 -0.15085207 -0.2688652 -0.24056517 0.2868074 -0.22105543 0.03933743 -0.04458787
0.24580438 -0.09455459 -0.1945998 -0.24214257 0.12104901 -0.2003371 0.08462279 -0.2803941
0.032279957 -0.1373295 -0.1435702 -0.20557992 -0.23875481 0.10997708 -0.26070812 0.0213792
-0.10308458 -0.2924253 -0.2633774 -0.018282617 -0.16804297 0.21105617 -0.1349349 0.044914726
0.24093498 -0.10551743 0.07619926 -0.1758004 0.03729778 0.033267487 0.25041914 -0.16232572
0.023827972 0.2657321 0.187959 0.033982515 -0.19305219 -0.22108608 -0.12466669 0.11746585
0.01882993 0.07979257 -0.015361609 -0.06512354 0.052396595 0.3189948 -0.040711336 -0.24481246
0.25434932 -0.04866755 0.034178812 -0.25761986 -0.25486323 -0.08667796 -0.07787732 -0.26753208
0.053413555 0.14758268 -0.08996344 -0.0077493056 -0.003966079 0.055079706 -0.09942661 -0.2687531
-0.14406711 -0.12152322 0.28606385 -0.24937513 -0.016756196 -0.046913147 0.24099353 0.022007002
-0.22969484 -0.11746584 0.15291701 -0.054763682 -0.20195901 -0.27232808 0.13728873 -0.053635105
-0.08912687 0.12722416 -0.28799778 0.2611183 -0.06246478 -0.1924212 -0.10821055 -0.2126175
-0.046118997 0.023157693 0.15801896 -0.28008136 -0.124651745 -0.027336614 0.17931117 -0.11678554
0.097910404 -0.26717833 -0.11647506 0.042392574 0.25227404 -0.23546287 0.14828245 0.16684435
0.02122208 0.029015932 -0.061502986 0.13705985 -0.023004021 0.032995667 0.07183209 0.13927424
-0.22454333 0.29270738 0.2845389 -0.17107587 -0.05225384 -0.009803926 -0.15035845 0.047077972
-0.16767497 0.21347193 -0.24116756 0.19578436 0.1916129 -0.21509103 -0.32329798 -0.03237754

linear1.bias f4 [256]
00000000: 2c5b 76bd 36fe 3abe a629 9fbb 5b5f 583e
00000010: 3697 c5bd 1656 6bbe 1d2c 59be 69d7 8b3e
00000020: bb21 71be af46 bb3d b6c1 89bd bfa6 93be
00000030: cda5 fdbb a1e3 0d3e 8dba c93d 467f e83b
00000040: c044 b53e 370e e0bd 894f 95bd 5b4c da3d
00000050: ffaa b43d f53c 80be aa95 52bd 5dc2 b4bd
00000060: 57aa 66be db4e d03c 82e7 3c3e 5584 80be
00000070: 477c 09bd 5834 24be 10af 36be 774a 6f3e
00000080: 657d 503d b00e 263d a239 86be adf3 913d
00000090: 9aad 53be f084 cbbd e778 2abe 29f3 e6bd
000000a0: 2ade ac3e 19e4 6dbd 0dce 87be 7a76 8cbd
000000b0: ad9c dabd 40b4 ba3e a55c 8c3c 6786 053e
000000c0: 29d2 21be cc0f fc3d c96d 883e 651e c3bd
000000d0: 4f39 1dbe 88ac 8b3e 57ff 5d3e ba0d 4dbc
000000e0: c773 393e 78a0 443e a9bd 1f3e 683c cbbd
000000f0: fc0e d83c ffc1 083d f62f 483d b9e6 a43e
00000100: d8c6 803d a755 2ebe f15f 3fbe d8bd 363e
00000110: 8828 4f3d d6b4 c63c d3a9 40be cd24 82be
00000120: dbff 4dbe 74e2 653d 1e9f 833c a413 82be
00000130: 0c27 983e 604e 303e 8b2e 573d 755a 933e
00000140: 4a1b 54bc 18e8 51be 1c4c 57be 540b 86be
00000150: 52cc 6dbd 41c6 ca3d 5421 913d a841 943e
00000160: e0c8 50be 9ced 473e 9927 04be 145c a63d
00000170: 7983 85be 6d25 013e 8cb1 a73e eb2d e43d
00000180: f9da 693e 56a6 843e c784 b9bd dd12 08be
00000190: f110 963e 005f 48bd db2e 4dbe ec22 283e
000001a0: cff1 803e 65b4 72be 6eca 853e 9747 a73e
000001b0: 9874 1bbe e156 60bc a810 5bbd e626 c9bd
000001c0: cdd9 32be 931b 9b3e 5a8b a93e 2fb1 ab3d
000001d0: 77da 84be 030a be3b 7736 e8bd 2f26 3bbd
000001e0: 57fa f7bd 4fd0 a13d 2826 64be 1e54 30be
000001f0: 54f1 ab3e 229b 1a3e 7371 20be f7fd bb3e
00000200: 8ba8 8cbc e985 0e3e 6fb2 30be 1f9d 5d3e
00000210: bf5b 50bd e9a4 8bbd b45b 6e3e 42f2 053b
00000220: aa76 61bd 4296 9fbe b4d2 86bd c34e abbb
00000230: 1581 0b3e 1a51 06bd 966f 6cbd 4257 22be
00000240: 1326 883e 202d 5abe 0058 7fbe e7b4 033d
00000250: 6bbf b9bd 4f00 ad3e 6c91 74be 86bf 12be
00000260: 8a42 be3c f44a 55be 2aff 4fbe dd4b 92be
00000270: 10a7 a33e c8f7 513a 2efd 1d3e b859 863e
00000280: 5e8a 8c3e 317e 32be 831e fe3d 1e68 163c
00000290: 504d f03d 601e d6bc f5f3 883e c0a2 573e
000002a0: 4f02 1f3e 6b86 8dbe c914 94bd dcae 833e
000002b0: c018 78bd b94c 923e 2d9b ac3d 61e8 45be
000002c0: ce63 64be d6f3 69be 3c77 76bb da29 063d
000002d0: 21ed 93be 1b52 553e 476b 863e 4c10 533e
000002e0: 8b6d 033e b6dd 9f3e d4a7 34bc eb30 0dbe
000002f0: ed81 3d3e 3b13 c7bd eceb 0fbd a532 ab3e
00000300: 1c65 c73d bc99 913e 2096 a43e d729 463e
00000310: 81bb 9d3e ec91 133e c2d2 303e d018 7f3e
00000320: 5654 27bd 0d37 213d e859 86be 8e99 963e
00000330: 2fdc 9e3d fb55 9d3d 1d82 eabd f066 9ebd
00000340: d3a1 b3bd 8fff 583e 6f40 9a3e 9c6a 5f3e
00000350: deb3 dcbd 5175 60be 66ea ecbd 2886 5b3e
00000360: 777b 1a3e 91bf 3d3d d032 da3b 5cee 313e
00000370: a24e 963e c32b aa3e fef6 3e3d e75c 03be
00000380: 8327 703c a0a5 eabd bfd9 3f3e 294b 823e
00000390: ae5c 04be 6ff2 963a cb38 823d 9239 cd3b
000003a0: 92eb 9f3e 1d61 d1bd 86c7 3e3e dc95 3abe
000003b0: 000e 8d3e 49a1 3d3e 7c41 403d c567 f2bd
000003c0: c8f4 c13e 2d0f 173e 4f77 6c3e 6e1f 9b3d
000003d0: e1b0 aebd 9b93 edbd 4473 73bd e1ca 493e
000003e0: 2d91 96bd 39b5 6f3e 2264 a0bc 4cb7 4abd
000003f0: d317 ddbd 7fa5 b9bd 84a5 d5bd 1902 8a3e
-0.060145542 -0.18261036 -0.00485726 0.21130125 -0.09647982 -0.22982058 -0.21208234 0.27312782
-0.23548023 0.09144341 -0.067264006 -0.28838155 -0.0077407123 0.13856365 0.09850035 0.0070952503
0.35404015 -0.10940211 -0.07290561 0.10659095 0.088216774 -0.25046507 -0.051412262 -0.08826134
-0.22525917 0.025428226 0.18447688 -0.2510096 -0.033565786 -0.16035593 -0.17840219 0.2336825
0.050900836 0.04054135 -0.26215845 0.071265556 -0.20671692 -0.09937465 -0.16647683 -0.11276848
0.33763248 -0.05807886 -0.26524392 -0.06858535 -0.10674415 0.36465645 0.01713402 0.13039552
-0.15802826 0.123077005 0.2664626 -0.09527282 -0.15353893 0.27280068 0.21679436 -0.01251548
0.18110572 0.19201839 0.15599693 -0.09923631 0.026374333 0.033388134 0.048873864 0.32207277
0.062879264 -0.17024861 -0.18688942 0.17845857 0.050575763 0.024256151 -0.18814783 -0.25418702
-0.20117132 0.056124166 0.016067084 -0.2540561 0.2971729 0.17217398 0.05253462 0.2877995
-0.012945959 -0.20498693 -0.21025127 -0.26180518 -0.058056183 0.09901095 0.07086435 0.28956342
-0.20389128 0.19524235 -0.1290573 0.08123031 -0.26076868 0.12611933 0.32752645 0.11141571
0.22837438 0.25908154 -0.090585284 -0.13288446 0.293098 -0.048918724 -0.20037405 0.16419572
0.25184485 -0.23701628 0.26131004 0.32671806 -0.15181196 -0.013692589 -0.05348268 -0.098218724
-0.17465897 0.30294475 0.3311413 0.083834045 -0.25947925 0.0057995333 -0.11338513 -0.04569071
-0.121082954 0.0790106 -0.2228018 -0.17219588 0.33582556 0.15098241 -0.15668277 0.36717197
-0.017170211 0.1391827 -0.17255567 0.21641968 -0.050868746 -0.068185635 0.2327717 0.0020438586
-0.055044807 -0.31169325 -0.06583157 -0.005227895 0.1362346 -0.03279219 -0.057723604 -0.15853599
0.26591548 -0.21306276 -0.24935913 0.032154944 -0.09069713 0.33789298 -0.23883599 -0.14330873
0.023225088 -0.20829374 -0.20312181 -0.28573504 0.31963396 0.00080096396 0.15428612 0.26240325
0.27449316 -0.1743095 0.124081634 0.009180097 0.11733496 -0.02613753 0.26748624 0.21058178
0.15528224 -0.27641615 -0.07230527 0.25719345 -0.06057048 0.2857416 0.08428035 -0.19326927
-0.22303697 -0.22846922 -0.003760769 0.032754757 -0.28891852 0.20832102 0.2625372 0.20611686
0.12834756 0.3122384 -0.0110263415 -0.13788192 0.18506594 -0.09720465 -0.035137102 0.33437076
0.09736082 0.28437603 0.32145786 0.19351898 0.30807117 0.14411134 0.17267898 0.24911809
-0.040851913 0.03935914 -0.26240468 0.29414028 0.077568404 0.07682415 -0.114505984 -0.077344775
-0.087711 0.21191238 0.30127284 0.21818012 -0.107764944 -0.21919753 -0.115681455 0.21437895
0.1508616 0.04632527 0.0066588894 0.17376083 0.29356867 0.33236513 0.04662227 -0.12828408
0.014657858 -0.11457372 0.18735407 0.25447968 -0.1292598 0.0011516343 0.06358489 0.0062629664
0.31234413 -0.10223601 0.186308 -0.1822123 0.27549744 0.18518557 0.04693745 -0.11836199
0.37882066 0.14751883 0.23092388 0.07574354 -0.08529831 -0.11600419 -0.059436098 0.19706298
-0.07351909 0.23408975 -0.019578997 -0.04949121 -0.1079556 -0.09064769 -0.1043196 0.26954725

linear2.weight f4 [4, 256]
00000000: 78cd c0bd 94c1 e4bc d0f6 2b3c 1b0f 08bd
00000010: d688 23bd 04d7 0abd b2eb b0bc 7db3 de3c
00000020: 28c1 29bd f7bc 3fbd 2e7b 2abd 0c16 32bd
00000030: d0a9 9dbb f447 68bc e117 e13c 426a 2ebd
00000040: 3464 90bd 0773 5839 1123 16bd 84fe e4bd
00000050: b8c5 153d c487 873c 30d0 6cbd 7275 f4bc
00000060: ad67 c03b 695a a5bb b7c1 a63c 733d a0bd
00000070: d2a6 9fbd f230 05bc f154 cd3c ac0d d43a
00000080: e33d 0ebd 81d5 053c 3c5a e03b bbd2 253d
00000090: ba78 3d3d d8f3 adbd 0991 1b3d 3ce7 cc3b
000000a0: b9a3 8ebd 5a54 323d 3c96 4dbd b101 003d
000000b0: f4c5 53bb 4a3c 9abd dc11 e03b 4946 12bc
000000c0: de60 a83c 1abd 85bc 800c efbc aa59 623d
000000d0: 0820 f3bc 10d3 8abd 9a1a f83c cfeb ab3c
000000e0: ef8a 2a3d 79c4 44bd 19a3 043d 9370 f13a
000000f0: 4fa4 f43b 5edb 89bd e7b2 b5bd c8e5 01bd
00000100: d9d5 61bc dd5a 8ebd 3877 68bc 7607 8b39
00000110: 09a3 a1bd 12b9 82bc 9866 8ebc dcb4 46bd
00000120: 29bf 89bd 42ae 80bd 07f4 96bd 3450 e03c
00000130: cfab f43c 40ef 52bd b61d 52bd 9891 4dbd
00000140: 7bf9 86ba ee42 bcba 579c 97bd bfbd c13c
00000150: 4542 f23c a1ca 18bd 482a 9abc 947b 5dbd
00000160: 5a73 21bd c690 323d fbad b53d e792 ddbc
00000170: 325d 0ebd d276 4a3c b270 17bd fb5f aabd
00000180: 247d 82bd 9fbe 8c3b b63e b73b 7d93 d3bd
00000190: 4da3 713a eb05 993c 9d64 efbb 4dd8 91bd
000001a0: a3f7 b5bd 0ce1 343d 372d b9bd 1015 bebd
000001b0: 242f cd3c acdd 00bd b5b1 893c 806f b3bd
000001c0: 6bb3 babd 674c 74bd c303 acbd c24f 94bc
000001d0: 3c62 8d3b 5e71 1abd 893c 7a3d d892 903a
000001e0: ab44 1abd 083f 41bd b233 b1bc 6903 bc3c
000001f0: f2ad abbd 81c2 493d ec9c e23d cd12 a3bd
00000200: 29a0 1abc 5224 84bd 439a 1e3c b5fa 80bd
00000210: aee5 813c 51d4 6ebd 8031 bb3d 5556 a7bd
00000220: c7ea c1bd d374 033d 0621 113d a120 bdbd
00000230: 852c 753b ba5a 5d3c 5d20 0b3c 283c c83c
00000240: 8032 ccbc bf29 6e3d 91a6 8b3c 8cee 90bc
00000250: b15d e8bd f8c2 aabd dc9f 53bd 8160 40bd
00000260: 72b3 613c 4631 183d a6c0 96bd ea33 f53c
00000270: bccd 8dbd 977c 283d 6191 50bd 477a 8b3d
00000280: e3e1 e7bc 37e4 11bd 1a2c 933d 6e4e 413c
00000290: d483 c0bd fab9 d3bd 8946 9cbd df9c cebd
000002a0: d1af 083d 9cd0 c8bd ac06 073d 4ac4 16bd
000002b0: 06c5 19bb ebdd e3bd bedb 96bd c5a1 32bc
000002c0: 207b 203d 62d0 493d d34a a83d 827a b3bc
000002d0: 7c67 eb3c d2f4 abbc d97e a0bc 8121 b8bd
000002e0: 57de 6c3d 7429 cbbd 4f36 3bbd 20cb 003d
000002f0: f487 09bc 0486 a33c 0ee4 9ebd 4af3 8bbd
00000300: da92 b8bd bd19 3fbc 98d5 b4bb 1674 623c
00000310: 06ff c8bd 64e2 ddbd 8684 c63c 4f92 193c
00000320: 8562 803d 4f0d f9bc f61f 12bc 9c2c 94bd
00000330: 936f 73bd 87bd 893c 7e14 a8bd 3abf 613d
00000340: 59a7 203c e2d5 d0bd 5b80 cfbd 1b1a 16bd
00000350: f5e4 413d 9533 d9bd 2860 c43b 8731 3d3d
00000360: 6b16 32bc 17ac 323c 1d28 a9bd ee63 313d
00000370: 2a31 c6bc 372d adbd 3e17 b5bd 0d91 9d3c
00000380: 0635 ebbc 1dbb 20bc ca40 29bd c122 ecbc
00000390: 3b24 f7bc 9da1 103c e4d0 993c 1e56 a8bb
000003a0: 8952 90bd bef6 dabc 4ccb 9ebd 32f3 5dbd
000003b0: 554d 3abd 96b8 74bd 31e9 803d 52df bcbd
000003c0: 70bc a2bd 4f15 cd3c b923 433b 78ca 8abd
000003d0: 256b 99bc 4492 a93d 4864 0e39 4626 c1bd
000003e0: 8691 c5bd 8958 d2bc 7ca3 be3c 55c1 aa3c
000003f0: ab87 62bd 53b9 82bd 5a93 f53a 2aa4 d2bd
-0.0941419 -0.027924336 0.010495856 -0.03321753 -0.03992542 -0.03389646 -0.021596763 0.027185196
-0.041443974 -0.04681107 -0.04162138 -0.043478057 -0.004811503 -0.014177311 0.027477207 -0.042581804
-0.07050362 0.00020642216 -0.036654536 -0.111813575 0.036565512 0.01654423 -0.05781573 -0.029841159
0.005871734 -0.005046178 0.020356042 -0.078242205 -0.0779549 -0.008129345 0.025064917 0.0016178391
-0.03472699 0.008168579 0.0068466943 0.04048417 0.046257712 -0.08493775 0.037980113 0.006253151
-0.06964821 0.043537475 -0.050192103 0.031251613 -0.0032314034 -0.075310305 0.0068380665 -0.00892789
0.020554002 -0.016325522 -0.029180765 0.05526129 -0.02967836 -0.06778538 0.030286122 0.020986466
0.041636404 -0.048038933 0.032382105 0.001842039 0.007465876 -0.06731294 -0.088720135 -0.031713277
-0.013783895 -0.069509245 -0.01418858 0.00026517705 -0.078924246 -0.015957389 -0.017382905 -0.048512325
-0.06725914 -0.06283237 -0.07370763 0.027381994 0.029867081 -0.051497698 -0.051297866 -0.050187677
-0.001029774 -0.0014363208 -0.07402866 0.023650048 0.029572615 -0.037302617 -0.01881899 -0.05407293
-0.03941665 0.043595098 0.08871075 -0.027047588 -0.034756847 0.0123574305 -0.03697271 -0.08319088
-0.06371525 0.0042951847 0.0055921925 -0.103308655 0.0009217754 0.01867958 -0.007305695 -0.07121334
-0.088851236 0.044159934 -0.09041827 -0.09281361 0.025046892 -0.031461403 0.01680837 -0.08761501
-0.091162525 -0.059643175 -0.08399155 -0.018104438 0.004314689 -0.03770577 0.061092887 0.0011030091
-0.037663143 -0.047179252 -0.021631096 0.022950845 -0.08382787 0.04925776 0.11065087 -0.0796257
-0.009437599 -0.0645224 0.009680334 -0.062978186 0.01585659 -0.05830795 0.09140301 -0.081707634
-0.09468608 0.032093834 0.035431884 -0.09234739 0.003741057 0.0135104 0.008491603 0.024442747
-0.024926424 0.05814528 0.017047198 -0.017691873 -0.11345995 -0.083379686 -0.051666126 -0.046967033
0.013775693 0.037156366 -0.073609635 0.029931981 -0.06924006 0.041134443 -0.050919894 0.06810432
-0.028305953 -0.035618033 0.07186146 0.011798484 -0.09400144 -0.103382066 -0.07630641 -0.100885145
0.033370797 -0.09805414 0.032965347 -0.03680829 -0.0023463382 -0.11126312 -0.07366131 -0.010902827
0.03917992 0.049270995 0.082173966 -0.021909002 0.028735869 -0.020990763 -0.019591736 -0.08990765
0.057829227 -0.09920016 -0.04570609 0.031443715 -0.00839423 0.019961365 -0.07758342 -0.06833513
-0.09012385 -0.011663851 -0.0055186264 0.013821622 -0.09814267 -0.10834196 0.024233114 0.009373262
0.06268791 -0.030401854 -0.008918753 -0.07235071 -0.059432577 0.016814006 -0.082070336 0.05511401
0.009805524 -0.10197045 -0.10131904 -0.03664599 0.04733749 -0.106055416 0.005992908 0.04618981
-0.010869603 0.010905287 -0.08259604 0.04330819 -0.024193365 -0.0845589 -0.08842324 0.019234205
-0.028711807 -0.009810236 -0.041321553 -0.028825166 -0.030168643 0.008827594 0.018776365 -0.005137219
-0.07046992 -0.026728984 -0.077536196 -0.054187007 -0.045483906 -0.059746347 0.06294478 -0.092222825
-0.07946098 0.025034575 0.002977593 -0.06776899 -0.018727848 0.08279851 0.00013579533 -0.09431128
-0.09646897 -0.025676982 0.023271315 0.020844141 -0.055305164 -0.06383004 0.0018735931 -0.10285218

linear2.bias f4 [4]
00000000: aca7 d5bd 35eb 9bbc 4f2d b9bd 517d c5bd
-0.104323715 -0.019033054 -0.09041845 -0.09643043
