model/model.pth (torch, 18847 bytes, 4 tensors)

linear1.weight f4 [256, 12]
0.36771193 -0.15750074 0.19377297 0.2149731 0.095240764 -0.05272838 -0.29331738 0.27949324
0.20227706 -0.0593887 0.2119591 0.019220468 0.17492123 0.12034859 -0.2770366 0.1711419
-0.14862323 0.13914147 0.11034199 0.2897403 -0.25656524 -0.091155544 0.22689126 0.26484373
-0.18221119 0.22015731 -0.018197715 0.076808624 0.046782807 -0.07553756 0.10271961 -0.08052796
0.20791464 0.09332016 0.24651995 -0.13783072 -0.09333627 -0.1132787 0.09719803 -0.070905104
-0.096494585 -0.12391897 0.16229227 -0.192238 0.31193286 0.34053096 0.16300896 0.1975951
0.19483224 0.24512959 -0.26973134 0.30877352 0.310032 0.06945183 -0.18385254 0.15378936
0.03524816 0.1036697 0.13722675 -0.100791216 0.22390586 -0.28544807 0.014421807 -0.13796763
0.20242001 -0.13345511 0.032278385 0.2062946 0.2793066 -0.17138287 0.21918772 -0.03682776
0.25451866 -0.27359578 0.248603 0.2811075 0.27761087 0.1746602 0.1017999 -0.041449983
0.28394073 0.2100242 0.13271147 -0.049455497 0.18605445 0.16612163 0.011791993 -0.09698804
-0.22951008 0.13990033 0.114051096 -0.24136807 0.21467331 -0.08399128 -0.15868649 0.20552266
-0.14851913 0.2872601 -0.059497163 0.16072062 0.23780233 -0.15799388 0.014869985 0.11202213
-0.037007287 0.118617825 0.2959495 -0.06742375 0.36140114 0.20291205 0.33630818 0.1546807
-0.15214469 0.2784161 -0.107680336 -0.1211248 0.18447511 0.099246785 0.0403463 -0.139923
-0.12048721 -0.17127064 -0.28588587 -0.16850293 -0.24462652 0.27302408 0.1291787 -0.08055504
-0.11573523 -0.19672176 0.048276514 -0.067037046 -0.14203608 0.09166719 -0.24140763 0.024249218
-0.123808354 -0.022166286 -0.12388362 -0.14329149 -0.22089057 -0.1587475 0.20114742 -0.23610055
0.080182835 -0.14421652 0.050456494 0.041754793 -0.095907435 -0.09847272 -0.05898065 -0.004669584
0.31107858 0.12205328 -0.10020796 0.32504112 0.16950767 0.14455768 0.23457365 0.006564068
0.30452415 0.2799196 -0.050840065 0.13620512 0.37701157 -0.045002915 0.18849352 0.008095999
-0.19579574 0.1894267 -0.27771792 0.32147008 0.32461622 0.14531343 -0.11232654 -0.1266617
0.03472643 -0.12742548 0.09209217 -0.20223333 -0.3551118 0.08129415 0.1641521 0.08289131
0.1961867 0.22072591 -0.21225055 -0.25863418 0.016357737 0.06913199 0.2293583 -0.049254052
0.2595149 0.10210302 0.15975025 -0.03102908 0.1609217 -0.25381073 0.088702105 0.34580845
0.1462862 0.23501974 -0.14196144 -0.017815638 0.19025938 -0.30432898 0.22950989 -0.17431279
-0.121628344 -0.15526395 -0.077644594 0.07497982 0.20207952 -0.19232239 0.1879892 0.1750655
-0.36633545 0.13793576 -0.0012043786 -0.10440375 0.28632444 0.3221228 0.009681616 0.21644759
-0.09244838 0.09268213 0.10457493 0.24188074 0.10084595 0.29319808 0.022167403 0.04361917
0.17517032 -0.26702213 0.22820616 0.07632735 0.2672719 0.18565625 -0.012784769 -0.0015763759
0.21744926 -0.25740626 0.017176446 -0.1515628 0.24533342 -0.14752321 0.1201366 -0.089217424
0.06094483 -0.031145493 -0.22598301 0.21428262 -0.23220013 0.089658916 0.31451195 0.32272315
00000000: bd44 bc3e e047 21be 6c6c 463e e921 5c3e
00000010: 970d c33d b7f9 57bd b22d 96be bd19 8f3e
00000020: b821 4f3e 9141 73bd ce0b 593e 3e74 9d3c
00000030: 8d1e 333e 5279 f63d bed7 8dbe d23f 2f3e
00000040: b030 18be 1a7b 0e3e fbfa e13d d758 943e
00000050: 855c 83be c2af babd 2f56 683e 9999 873e
00000060: 9295 3abe eb70 613e 6013 95bc d74d 9d3d
00000070: 549f 3f3d 70b3 9abd a95e d23d d8eb a4bd
00000080: 93e7 543e a41e bf3d ba6f 7c3e 7f23 0dbe
00000090: 1627 bfbd aafe e7bd c30f c73d b236 91bd
000000a0: f49e c5bd 3bc9 fdbd f22f 263e 0ada 44be
000000b0: aab5 9f3e 135a ae3e d2eb 263e 5f56 4a3e
000000c0: 1a82 473e 4003 7b3e 3a1a 8abe 9017 9e3e
000000d0: 84bc 9e3e c33c 8e3d d743 3cbe f57a 1d3e
000000e0: 6060 103d c850 d43d 2b85 0c3e a06b cebd
000000f0: 9447 653e 4026 92be 7149 6c3c 6347 0dbe
00000100: 3147 4f3e 75a8 08be 5736 043d e43e 533e
00000110: 4601 8f3e fe7e 2fbe bf72 603e b5d8 16bd
00000120: 4550 823e bf14 8cbe c991 7e3e 52ed 8f3e
00000130: 0323 8e3e 20da 323e 777c d03d 75c7 29bd
00000140: ae60 913e 9510 573e 84e5 073e d991 4abd
00000150: 0f85 3e3e ca1b 2a3e 3433 413c aaa1 c6bd
00000160: b104 6bbe 0842 0f3e 9f93 e93d 3129 77be
00000170: 52d3 5b3e 9f03 acbd b67e 22be 8874 523e
00000180: 6615 18be c113 933e 4cb3 73bd f293 243e
00000190: 7482 733e 26c9 21be 3da1 733c dc6b e53d
000001a0: f494 17bd e7ed f23d b186 973e 7715 8abd
000001b0: 9209 b93e 2dc8 4f3e 9630 ac3e 9e64 1e3e
000001c0: d1cb 1bbe 8e8c 8e3e 8287 dcbd 4710 f8bd
000001d0: 0be7 3c3e e641 cb3d 2942 253d fa47 0fbe
000001e0: 00c2 f6bd 9261 2fbe a25f 92be 088c 2cbe
000001f0: 607f 7abe d0c9 8b3e 6c47 043e 0afa a4bd
00000200: 9806 edbd 6e71 49be 98bd 453d b84a 89bd
00000210: e871 11be 02bc bb3d 9033 77be 4ca6 c63c
00000220: 3c8f fdbd 1296 b5bc b2b6 fdbd 01bb 12be
00000230: 2331 62be b48e 22be 97f9 4d3e 58c4 71be
00000240: e636 a43d 7fad 13be 78ab 4e3d 1307 2b3d
00000250: 1e6b c4bd 11ac c9bd b295 71bd 4f03 99bb
00000260: b145 9f3e 12f7 f93d d539 cdbd ca6b a63e
00000270: 6b93 2d3e ee06 143e 1334 703e 6517 d73b
00000280: 97ea 9b3e 9f51 8f3e ac3d 50bd 5b79 0b3e
00000290: a907 c13e fa54 38bd 7204 413e 15a5 043c
000002a0: ae7e 48be 13f9 413e 0b31 8ebe ba97 a43e
000002b0: 1934 a63e 0bcd 143e 750b e6bd 9bb3 01be
000002c0: 4d3d 0e3d d37b 02be d29a bc3d 4116 4fbe
000002d0: 37d1 b5be 8c7d a63d 7d17 283e ebc2 a93d
000002e0: 2be5 483e f905 623e 3558 59be b36b 84be
000002f0: a900 863c 1395 8d3d e7dc 6a3e 9ebe 49bd
00000300: 23df 843e 631b d13d 9295 233e b230 febc
00000310: a8c8 243e 7bf3 81be 73a9 b53d ce0d b13e
00000320: 0dcc 153e 04a9 703e 575e 11be 1af2 91bc
00000330: 5bd3 423e 02d1 9bbe a404 6b3e 0d7f 32be
00000340: 4818 f9bd 83fd 1ebe 2104 9fbd 058f 993d
00000350: efed 4e3e 29f0 44be 3e80 403e 5f44 333e
00000360: 5290 bbbe 083f 0d3e 3ddc 9dba a2d1 d5bd
00000370: 1e99 923e 48ed a43e a49f 1e3c 70a4 5d3e
00000380: 9455 bdbd 21d0 bd3d 622b d63d 96af 773e
00000390: 5288 ce3d 0f1e 963e 6a98 b53c 04aa 323d
000003a0: d95f 333e 20b7 88be e0ae 693e 8451 9c3d
000003b0: ddd7 883e ac1c 3e3e 3577 51bc 669e ceba
000003c0: 05ab 5e3e c1ca 83be 9eb5 8c3c 4733 1bbe
000003d0: af38 7b3e 5310 17be 2e0a f63d a0b7 b6bd
000003e0: 49a1 793d d524 ffbc 1768 67be e76c 5b3e
000003f0: dfc5 6dbe 189f b73d b607 a13e f83b a53e

linear1.bias f4 [256]
0.21817456 0.2425104 -0.13293518 0.18390709 0.13069691 -0.0944225 0.010095181 -0.2991802
0.16109607 0.38149947 -0.22070688 0.22282048 0.2090341 0.33867872 0.327454 0.13171545
0.29982752 0.065562665 -0.05013715 -0.023748467 0.1610224 0.28841707 0.20951334 0.0057304623
0.35584652 0.09518588 -0.27727112 -0.056399465 0.30236232 0.020650499 0.050141327 -0.19923422
0.3530447 0.059863325 0.11497094 0.11894716 0.049434453 0.008782696 -0.024727812 -0.1310827
0.34101462 0.33571792 0.13834606 -0.12652719 -0.07179416 -0.105173916 0.14972375 0.25123045
0.0039834552 -0.08196186 0.28153238 -0.18478014 -0.030910736 0.16065814 -0.053900022 -0.073775
-0.11413255 0.035058104 -0.06830505 0.18828937 0.17716528 -0.13740772 0.06111408 0.37410617
0.32831407 0.15368646 0.013065906 0.09161272 0.1696991 0.010586901 0.2911454 -0.13086459
0.37352878 0.17460938 -0.11905261 0.31629014 -0.06403505 0.041916545 0.044479646 0.19118164
0.18958901 0.32490125 0.13544707 -0.1787384 -0.02445312 0.34761423 0.15458184 -0.25793228
-0.16810727 0.08755098 0.31461436 -0.0849489 -0.07583346 0.32317683 -0.07019901 0.12876639
0.033783637 0.3766335 0.3661389 -0.14160565 0.23186347 -0.07729345 0.022170173 0.3027752
0.015033911 0.213006 -0.045401137 -0.22187926 -0.13653074 0.3996225 -0.2792667 0.051626712
-0.09123413 0.22280957 0.15492241 0.08582769 -0.24456972 0.10838825 -0.08771384 0.2816153
-0.276176 -0.23148356 -0.1151296 0.088663645 -0.043470625 -0.11999592 0.089243315 -0.08732246
-0.060627952 0.2800171 -0.012782601 -0.26667655 0.1168583 0.107347555 0.1266832 -0.23080002
0.19805075 0.20547713 0.33792296 0.06845738 0.23838568 -0.23666754 -0.11386753 0.23363686
0.13165449 0.03194244 0.10277016 0.39324462 0.25566158 0.041156914 0.32358915 -0.23836088
0.063152015 0.25691986 0.2363389 -0.05240925 0.3244653 0.24184151 0.21715093 0.12317581
-0.057323262 0.3741195 -0.10134143 -0.045560252 0.13687855 -0.022158042 -0.1971407 0.20636806
0.35764623 -0.03824461 -0.14277433 -0.33143914 -0.2390445 0.2721446 -0.2840642 -0.028208522
0.008625431 0.28996542 0.18103279 -0.03367254 -0.21763802 0.02802965 -0.08163167 -0.043923844
0.034872603 0.20744655 0.13644038 0.19948122 0.21634759 -0.11606125 -0.04353953 -0.23175424
0.040133435 -0.2459272 -0.17728464 0.23801862 0.31221312 0.28023773 0.31194326 0.02247668
-0.15309341 0.39700714 0.005680955 -0.09586268 0.27372062 0.24528447 0.26068145 0.01139693
0.30898988 0.24252516 0.37364548 0.03392805 -0.17669038 -0.1625043 0.15222922 0.29179734
-0.059216708 0.31644836 -0.1265114 0.07656772 0.0035577565 0.029292485 0.34133857 0.13183114
0.40647644 -0.2597984 0.030582305 -0.023962734 -0.23562068 0.16918704 0.1531535 -0.04873795
-0.12935813 -0.11967021 0.1435596 -0.10680535 0.36162803 -0.28213096 0.013770692 0.1780045
-0.11137079 -0.09290457 0.07797533 -0.019499218 -0.18279196 -0.1407876 0.2692372 -0.115140684
-0.13753153 0.34977317 -0.06979372 0.079521015 -0.2527863 -0.3143238 0.013463957 0.28086817
00000000: 2769 5f3e a554 783e 2920 08be 2452 3c3e
00000010: 69d5 053e 9560 c1bd 4266 253c 262e 99be
00000020: 5ef6 243e e653 c33e fc00 62be 0d2b 643e
00000030: 090d 563e 4c67 ad3e 0da8 a73e 6ae0 063e
00000040: fe82 993e b845 863d 9d5c 4dbd 258c c2bc
00000050: 0ee3 243e 67ab 933e aa8a 563e 9ac6 bb3b
00000060: 8431 b63e d1f0 c23d 7bf6 8dbe 2003 67bd
00000070: 3ccf 9a3e 3c2b a93c fe60 4d3d 0e04 4cbe
00000080: 46c2 b43e 3f33 753d e275 eb3d 929a f33d
00000090: c87b 4a3d 4ce5 0f3c fb91 cabc 8b3a 06be
000000a0: 7899 ae3e 38e3 ab3e 97aa 0d3e 5890 01be
000000b0: d108 93bd 6c65 d7bd 2f51 193e 47a1 803e
000000c0: a587 823b 9fdb a7bd 0325 903e 0137 3dbe
000000d0: 8338 fdbc 9183 243e 45c6 5cbd 5917 97bd
000000e0: 54be e9bd 1699 0f3d 85e3 8bbd eece 403e
000000f0: d16a 353e 9cb4 0cbe c252 7a3d d88a bf3e
00000100: c818 a83e fc5f 1d3e 6212 563c 739f bb3d
00000110: 9ac5 2d3e ae74 2d3c 0311 953e 5e01 06be
00000120: 2a3f bf3e cdcc 323e dbd1 f3bd c8f0 a13e
00000130: cf24 83bd afb0 2b3d 4a30 363d 1fc5 433e
00000140: 9f23 423e 7559 a63e a3b2 0a3e 3307 37be
00000150: e951 c8bc 7efa b13e b44a 1e3e b30f 84be
00000160: 5024 2cbe ee4d b33d 2215 a13e b0f9 adbd
00000170: 934e 9bbd 6f77 a53e 80c4 8fbd 56db 033e
00000180: b660 0a3d 1bd6 c03e 8f76 bb3e 1201 11be
00000190: 9e6d 6d3e 074c 9ebd 399e b53c 5a05 9b3e
000001a0: cb50 763c 3f1e 5a3e 8bf6 39bd 5134 63be
000001b0: b7ce 0bbe 529b cc3e 0bfc 8ebe 8876 533d
000001c0: f6d8 babd 3128 643e fba3 1e3e 6ec6 af3d
000001d0: 7c70 7abe a9fa dd3d 50a3 b3bd e12f 903e
000001e0: f166 8dbe 070a 6dbe 11c9 ebbd 4995 b53d
000001f0: 410e 32bd 6cc0 f5bd 33c5 b63d 1ed6 b2bd
00000200: 0455 78bd 675e 8f3e 1d6e 51bc d489 88be
00000210: 6853 ef3d 09d9 db3d 3eb9 013e d756 6cbe
00000220: d1cd 4a3e 9968 523e 3d04 ad3e 6233 8c3d
00000230: 601b 743e fa58 72be 6133 e9bd 803e 6f3e
00000240: 6fd0 063e 13d6 023d 2979 d23d 5c57 c93e
00000250: 13e6 823e 2794 283d 7aad a53e e014 74be
00000260: d855 813d 008b 833e d302 723e 15ab 56bd
00000270: 5120 a63e 4da5 773e d05c 5e3e 9943 fc3d
00000280: cccb 6abd 978c bf3e 188c cfbd 639d 3abd
00000290: e429 0c3e c884 b5bc 40df 49be 2652 533e
000002a0: 681d b73e 61a6 1cbd 6f33 12be 64b2 a9be
000002b0: 15c8 74be 8956 8b3e dd70 91be 8f15 e7bc
000002c0: ae51 0d3c 5976 943e a960 393e 38ec 09bd
000002d0: 80dc 5ebe 709e e53c 812e a7bd 7de9 33bd
000002e0: 93d6 0e3d de6c 543e 07b7 0b3e ce44 4c3e
000002f0: 398a 5d3e 85b1 edbd 8256 32bd fc50 6dbe
00000300: f562 243d 57d4 7bbe 1b8a 35be 27bb 733e
00000310: 66da 9f3e 527b 8f3e 07b7 9f3e 0421 b83c
00000320: 85c4 1cbe 8544 cb3e 4e27 ba3b a753 c4bd
00000330: 1c25 8c3e da2b 7b3e 0a78 853e 30ba 3a3c
00000340: ec33 9e3e 8458 783e 764e bf3e 24f8 0a3d
00000350: 53ee 34be 8767 26be fae1 1b3e 7666 953e
00000360: 388d 72bd 8505 a23e 348c 01be 89cf 9c3d
00000370: 4029 693b cbf6 ef3c eec3 ae3e befe 063e
00000380: ae1d d03e 4c04 85be be87 fa3c 7f4d c4bc
00000390: 8c46 71be 5e3f 2d3e 45d4 1c3e 72a1 47bd
000003a0: 7576 04be a815 f5bd 4a01 133e c3bc dabd
000003b0: 4f27 b93e 7873 90be 789e 613c d046 363e
000003c0: 5e16 e4bd c044 bebd 88b1 9f3d d3bc 9fbc
000003d0: d12d 3bbe a02a 10be 75d9 893e e1ce ebbd
000003e0: 11d5 0cbe 7815 b33e 03f0 8ebd eadb a23d
000003f0: 356d 81be 0def a0be ee97 5c3c f4cd 8f3e

linear2.weight f4 [4, 256]
-0.09749444 -0.114041574 0.1677005 -0.056559063 -0.079727925 -0.099729314 -0.13393503 0.02002086
-0.072578356 -0.1276252 0.008426219 0.13103424 -0.036377944 -0.113505274 -0.0076701753 0.10836765
-0.09865833 -0.10054596 0.087964796 -0.07310249 -0.13374141 0.046372272 -0.13123088 0.0039096978
-0.11923688 -0.11122187 0.030384433 -0.011844621 -0.15512358 -0.0032997536 0.03557047 -0.06993386
-0.0920636 -0.079835944 -0.018074244 -0.05033334 -0.020576918 -0.11976584 -0.050362673 0.035817742
-0.115767404 -0.018814426 -0.091879636 -0.03298333 -0.1954948 0.10678139 -0.016267836 -0.12140039
-0.074785404 0.06891599 0.053531624 -0.121264145 -0.14968075 0.0068256217 0.13866289 0.003586613
0.035969444 -0.07459853 0.0060522826 -0.13729087 0.009543744 0.034002997 -0.045415025 -0.14194973
-0.11135803 -0.100544274 0.03185547 -0.002441621 -0.114419065 -0.01612134 -0.03218543 0.013184071
-0.04530621 -0.05256515 -0.01461009 -0.04217413 -0.0391597 -0.1421861 0.024327703 -0.038703177
0.003916156 -0.14341632 0.09918626 -0.064733006 -0.10471912 0.006132404 0.040571786 0.014166014
-0.07691565 -0.04277351 -0.07394013 0.09687772 -0.033949606 -0.126026 0.031511012 -0.075978145
-0.028225912 -0.13626234 0.07823054 0.032847956 -0.081121884 0.0048829927 -0.12069711 -0.15877321
-0.12941553 0.022101436 -0.14640471 0.0406932 -0.014867591 -0.08480187 -0.007533769 -0.0011610389
-0.041908797 -0.1002758 -0.07931853 -0.13745101 0.0058489214 -0.13667877 -0.077587865 -0.1778545
-0.045506373 -0.063623264 -0.11331516 0.018209334 0.02653923 0.11990962 0.18825379 -0.17897823
0.01013612 -0.11581173 0.11605369 -0.07341276 -0.070601135 0.007511267 -0.1821956 -0.09114847
-0.06337574 -0.14260435 -0.017745284 0.04597107 -0.022142773 -0.06675757 -0.042350236 -0.14560582
-0.013358858 -0.04620419 -0.15784386 -0.042578544 -0.11718441 -0.024243258 -0.12652972 -0.022960668
-0.15245281 -0.15610115 0.036696658 -0.14898431 -0.09650126 -0.15627408 -0.014161754 -0.027003203
-0.004642077 -0.077765726 -0.054173205 -0.18612106 -0.00051612244 -0.074015446 -0.025233949 0.045352332
-0.076054804 0.031803325 -0.12473315 0.047777288 0.0017080602 -0.15025744 0.046162196 -0.07797341
0.03585453 -0.05157101 -0.07432809 0.25359365 -0.06085214 0.004633827 -0.06681685 0.0061024823
-0.027102984 -0.15783201 0.056393463 -0.13200764 -0.10731539 -0.037910942 -0.20198685 0.05150157
-0.06530732 -0.052445658 -0.02573441 -0.060270816 -0.09903385 0.026404427 0.0007060056 0.13840133
0.047073964 -0.11165545 -0.04868253 -0.009514178 -0.12984768 -0.008178164 -0.02973875 -0.08816063
-0.15545742 -0.032670178 -0.13112754 -0.13876092 -0.19089536 0.099461764 -0.056665726 -0.030475715
-0.12255014 -0.12188194 0.11083059 -0.13892223 0.002265576 -0.070890374 -0.05889778 0.13194032
-0.14382088 -0.08187146 -0.03374806 -0.05858343 -0.04472512 -0.1371394 -0.0018992515 0.0028219582
-0.046388987 -0.0702516 0.009131813 -0.09440185 -0.111289345 0.037441425 -0.026553819 -0.22143304
0.013513403 0.022183985 -0.18944974 -0.039490465 0.06061095 -0.17862897 -0.062390495 -0.051023427
0.01844901 -0.09890062 -0.11196873 -0.135958 0.040830955 0.0052106204 -0.105858356 -0.063273236
00000000: 2aab c7bd a18e e9bd aeb9 2b3e 7aaa 67bd
00000010: 6548 a3bd e23e ccbd 4426 09be c902 a43c
00000020: f6a3 94bd 2eb0 02be 200e 0a3c d72d 063e
00000030: 0a01 15bd 7475 e8bd 1856 fbbb dcef dd3d
00000040: 610d cabd 0aeb cdbd e326 b43d c2b6 95bd
00000050: 82f3 08be daf0 3d3d 6361 06be ec1c 803b
00000060: 7732 f4bd 4bc8 e3bd c6e8 f83c f10f 42bc
00000070: b7d8 1ebe ae40 58bb 57b2 113d 7c39 8fbd
00000080: d78b bcbd 0781 a3bd 7010 94bc 552a 4ebd
00000090: ed90 a8bc cb47 f5bd 1749 4ebd a0b5 123d
000000a0: 7617 edbd b620 9abc 642b bcbd 8719 07bd
000000b0: ca2f 48be 34b0 da3d 2044 85bc c5a0 f8bd
000000c0: 1729 99bd d423 8d3d fa43 5b3d 5659 f8bd
000000d0: e945 19be 77a9 df3b a5fd 0d3e 620d 6b3b
000000e0: b254 133d 1dc7 98bd 3a52 c63b fa95 0cbe
000000f0: 5d5d 1c3c ba46 0b3d 1b05 3abd 455b 11be
00000100: ae0f e4bd 28ea cdbd e27a 023d 9a03 20bb
00000110: 8b54 eabd e710 84bc dfd4 03bd 0002 583c
00000120: 0193 39bd 8e4e 57bd 295f 6fbc c8be 2cbd
00000130: ec65 20bd 3c99 11be e44a c73c 3987 1ebd
00000140: 1953 803b badb 12be 2a22 cb3d bd92 84bd
00000150: fa76 d6bd 55f2 c83b 9a2e 263d 9218 683c
00000160: f485 9dbd 4733 2fbd ec6d 97bd d367 c63d
00000170: be0e 0bbd f60c 01be b111 013d 6e9a 9bbd
00000180: 073a e7bc 5b88 0bbe 5537 a03d 948b 063d
00000190: 3b23 a6bd 8301 a03b 0c30 f7bd 7295 22be
000001a0: 8185 04be 120e b53c 1eeb 15be eaad 263d
000001b0: 3297 73bc 9aac adbd d6dd f6bb 002e 98ba
000001c0: 8fa8 2bbd 665d cdbd c171 a2bd f5bf 0cbe
000001d0: 4fa8 bf3b 85f5 0bbe 63e6 9ebd 7d1f 36be
000001e0: e464 3abd ea4c 82bd c711 e8bd be2b 953c
000001f0: cd68 d93c 2d93 f53d 9ac5 403e 1246 37be
00000200: f811 263c b32e edbd 8fad ed3d 6e59 96bd
00000210: 5497 90bd 1321 f63b 7c91 3abe 0dac babd
00000220: 24cb 81bd e006 12be 8f5e 91bc 294c 3c3d
00000230: c364 b5bc 31b8 88bd 7177 2dbd b119 15be
00000240: 1ddf 5abc 9b40 3dbd d2a1 21be d766 2ebd
00000250: 61fe efbd cc99 c6bc 0291 01be 0318 bcbc
00000260: 971c 1cbe fbd8 1fbe 3c4f 163d 588f 18be
00000270: 74a2 c5bd 5006 20be b406 68bc d235 ddbc
00000280: 901c 98bb a343 9fbd b9e4 5dbd 8596 3ebe
00000290: 644c 07ba 6995 97bd 6db7 cebc 5ec3 393d
000002a0: 9fc2 9bbd 3444 023d 1874 ffbd 1eb2 433d
000002b0: fde0 df3a 16dd 19be 9214 3d3d 86b0 9fbd
000002c0: 33dc 123d 203c 53bd 5339 98bd 07d7 813e
000002d0: 1840 79bd 5cd7 973b 46d7 88bd 55f7 c73b
000002e0: 1407 debc b79e 21be d5fc 663d 032d 07be
000002f0: 2cc8 dbbd 8148 1bbd a4d5 4ebe 4ff3 523d
00000300: d8bf 85bd 42d1 56bd f8d0 d2bc 88de 76bd
00000310: 42d2 cabd 194e d83c 3c13 393a 14b9 0d3e
00000320: a1d0 403d 9dab e4bd 5567 47bd 5be1 1bbc
00000330: caf6 04be b5fd 05bc ae9e f3bc 8f8d b4bd
00000340: 3b30 1fbe 2ad1 05bd 4c46 06be 5817 0ebe
00000350: 137a 43be 9cb2 cb3d 521a 68bd 35a8 f9bc
00000360: 91fb fabd 3d9d f9bd 26fb e23d a141 0ebe
00000370: 0f7a 143b f92e 91bd cc3e 71bd 5d1b 073e
00000380: c845 13be 39ac a7bd 683b 0abd 2ef5 6fbd
00000390: b031 37bd 456e 0cbe 4ef0 f8ba 9af0 383b
000003a0: 6102 3ebd 12e0 8fbd 9a9d 153c c255 c1bd
000003b0: abeb e3bd 2e5c 193d 6587 d9bc 58bf 62be
000003c0: 5267 5d3c 30bb b53c 1dff 41be c1c0 21bd
000003d0: 3043 783d 83ea 36be 2d8d 7fbd f1fd 50bd
000003e0: 6122 973c 698c cabd dd4f e5bd 9338 0bbe
000003f0: 5c3e 273d dabd aa3b 44cc d8bd 6695 81bd

linear2.bias f4 [4]
-0.032415077 -0.10498744 -0.11642333 -0.10832358
00000000: acc5 04bd a803 d7bd 5b6f eebd c1d8 ddbd
