model/model.pth (torch, 18847 bytes, 4 tensors)

linear1.weight f4 [256, 12]
0	0x3e929ade	0.2863378
1	0x3e3b7b38	0.18308723
2	0x3b863291	0.0040953835
3	0xbc0988c8	-0.008394428
4	0xbd654c8c	-0.055981204
5	0x3d823971	0.06358612
6	0x3e9b9b72	0.30392033
7	0xbec83b78	-0.3910787
8	0x3d96983d	0.07353256
9	0xbe278a76	-0.16361412
10	0x3f07d5b2	0.5306045
11	0x3daa0af1	0.08302868
12	0xbe54d7e5	-0.20785482
13	0x3e933cec	0.28757417
14	0x3ced21a4	0.028946705
15	0x3e8e8c5e	0.27841467
16	0xbe47b33b	-0.19501965
17	0xbe9e39e5	-0.30903545
18	0x3ea813fd	0.3282775
19	0xbe609302	-0.21931079
20	0x3e8588c7	0.26080915
21	0xbe7dc3f3	-0.2478178
22	0x3ea2f3fd	0.31826773
23	0x3e18c049	0.14917101
24	0x3ec5c749	0.38628605
25	0x3ebaa460	0.36453533
26	0xbee535d8	-0.44767642
27	0x3c8237fd	0.015895838
28	0x3ed3366f	0.41252467
29	0x3d8efde7	0.06982022
30	0x3ea0beeb	0.3139566
31	0x3e55ae53	0.2086728
32	0x3f0fa6ad	0.561137
33	0xbe9dbf59	-0.3081005
34	0xbe1d88d2	-0.15384224
35	0xbe8a602c	-0.27026498
36	0xbd4e3fc1	-0.05035377
37	0x3d00c478	0.031437367
38	0x3ddb95e3	0.10721948
39	0x3e83c21a	0.25734025
40	0x3d8e27d8	0.06941193
41	0x3e48dab5	0.1961468
42	0xbe404a92	-0.18778446
43	0xbe8df27b	-0.2772406
44	0x3e80d809	0.25164822
45	0xbd9a8b1e	-0.07546066
46	0x3f0ed756	0.55797327
47	0x3c845d66	0.016157817
48	0x3ed1d4f0	0.4098277
49	0xbeb17985	-0.34663025
50	0xbc2fba2b	-0.010725538
51	0x3dbd5792	0.09245218
52	0xbe19fbdb	-0.15037481
53	0x3c89a135	0.016800502
54	0xbe677cd1	-0.22606207
55	0x3dd51563	0.1040447
56	0xbbc21290	-0.005922623
57	0x3e4f5caa	0.20250192
58	0x3ef25993	0.47333965
59	0x3ec73d28	0.38913846
60	0x3cb1884b	0.021671435
61	0x3e11f118	0.14252126
62	0x3eb2267a	0.3479498
63	0xbf086592	-0.53279984
64	0xbd663f65	-0.0562128
65	0x3e9105f7	0.28324863
66	0x3e91dd76	0.28489274
67	0xbe0a4c67	-0.13505708
68	0x3eac6d30	0.33677053
69	0x3e30785a	0.1723341
70	0xbed45495	-0.4147078
71	0x3e0383f1	0.128433
72	0xbd2ced99	-0.04221878
73	0x3d57831d	0.052615274
74	0x3e67e3d5	0.22645505
75	0xbddc8b3b	-0.107687436
76	0x3d11ba31	0.035577957
77	0xbccd2f76	-0.025047045
78	0xbe0966dd	-0.13418145
79	0x3e08d384	0.13361937
80	0x3e976973	0.2957264
81	0x3d120ddf	0.03565776
82	0x3ec5d617	0.386399
83	0x3ea26d65	0.31724086
84	0xbeb72637	-0.35771343
85	0x3e5fd43e	0.21858308
86	0x3e4f9628	0.20272124
87	0x3e1c493a	0.15262309
88	0xbea82b93	-0.32845744
89	0xbe1233ae	-0.14277527
90	0x3e8b81de	0.27247518
91	0xbe894182	-0.2680779
92	0x3d7f9597	0.06239852
93	0x3dd8d2b0	0.105870605
94	0x3d3c3ba0	0.0459553
95	0xbcc97a62	-0.02459449
96	0x3e94a37e	0.29030985
97	0x3ed21a30	0.41035604
98	0xbd93f8cf	-0.07225191
99	0x3de26ddc	0.1105611
100	0xbe273579	-0.16328992
101	0x3e8e2274	0.2776066
102	0x3e26fcbe	0.16307351
103	0x3e764904	0.24051291
104	0xbd445da1	-0.047940854
105	0xbcfadb85	-0.030622253
106	0x3d95a3d4	0.07306638
107	0x3e882e33	0.26597747
108	0xbe0c5aa2	-0.13706449
109	0x3ef58b18	0.47957683
110	0xbebdb727	-0.37053797
111	0x3e838357	0.25686142
112	0xbe286049	-0.1644298
113	0x3e00ab20	0.12565279
114	0x3d2d2920	0.042275548
115	0xbd703ad7	-0.058649864
116	0xbc45a670	-0.012063608
117	0x3e499c02	0.19688419
118	0x3e63c2f1	0.22242333
119	0x3e51314d	0.20428963
120	0xbcb92c2b	-0.022604069
121	0x3dbef5d0	0.09324229
122	0xbccbb605	-0.024867067
123	0x3e54ec80	0.20793343
124	0x3d370a7c	0.044687733
125	0x3e19d17c	0.15021318
126	0x3e19b91e	0.15012023
127	0x3e7ae656	0.24501929
128	0x3e6070d4	0.2191804
129	0x3ddfed5a	0.10933943
130	0x3ea1afbd	0.3157939
131	0x3e0dae20	0.13835955
132	0x3e8d240f	0.27566573
133	0xbe1aa489	-0.15101828
134	0x3e421aa6	0.18955478
135	0x3e135cb6	0.14390835
136	0x3e9ea04a	0.30981666
137	0x3e89bb04	0.26900494
138	0xbe1b9fea	-0.15197721
139	0xbbd64ace	-0.006539679
140	0xbe3f6fb5	-0.18694957
141	0xbe5762b5	-0.21033747
142	0xbe5d7173	-0.21625309
143	0x3f04e8dc	0.51917815
144	0x3e3e0a22	0.18558553
145	0x3e939098	0.28821254
146	0x3ea99c97	0.3312728
147	0xbed0da3f	-0.4079151
148	0xbe3fd491	-0.18733431
149	0x3e246d24	0.16057259
150	0xbdf6b37a	-0.12045951
151	0x3e716c14	0.23576385
152	0x3e50faaa	0.20408121
153	0x3e97f1e8	0.29676747
154	0xbe72e642	-0.23720649
155	0xbdab54bb	-0.083657704
156	0x3d379a85	0.044825096
157	0xbdbdbf59	-0.09265012
158	0xbdb1848e	-0.08667861
159	0xbe3db80c	-0.1852724
160	0x3c08aebf	0.008342444
161	0x3e34c76c	0.17654198
162	0xbe874c0d	-0.2642521
163	0xbe7d613d	-0.24744125
164	0xbd14db6d	-0.036342073
165	0xbe550fc9	-0.20806803
166	0xbdef6252	-0.11688675
167	0xbe1e6ad7	-0.15470444
168	0x3e83059a	0.2559021
169	0x3d9a13b2	0.07523288
170	0x3e50fb01	0.2040825
171	0xbf052202	-0.52005017
172	0xbe0b38ca	-0.13595882
173	0xbd8199c1	-0.06328154
174	0x3ec34976	0.38141984
175	0x3df7a030	0.120911
176	0x3c970d3d	0.01843893
177	0x3e418b0d	0.189007
178	0xbecbd973	-0.39814338
179	0x3c98e4d2	0.018663798
180	0xbecbb40e	-0.39785808
181	0x3e37ca42	0.17948249
182	0x3ef13044	0.47107136
183	0xbe094a5c	-0.13407272
184	0xbe3b822e	-0.18311378
185	0x3ef37c19	0.47555616
186	0x3da92c31	0.08260382
187	0x3e1db6be	0.15401742
188	0xbd37068a	-0.04468397
189	0xbe5d8f03	-0.21636586
190	0xbe835c2c	-0.2565626
191	0xbdb24b1f	-0.087057345
192	0x3e6a5d18	0.22887075
193	0xbdfeb789	-0.1243735
194	0x3e7d4610	0.24733758
195	0xbec7df58	-0.39037585
196	0x3e13887d	0.14407535
197	0x3e27b40b	0.16377275
198	0xbd47bc70	-0.048763692
199	0x3d978e02	0.07400133
200	0x3d3e55b4	0.04646845
201	0x3e83266e	0.25615257
202	0x3e47aa2b	0.19498508
203	0x3ed5f8d7	0.41791412
204	0xbe2938e4	-0.16525608
205	0x3f00acb9	0.50263554
206	0xbdbf3587	-0.093363814
207	0xbd575296	-0.052568994
208	0xbdbe0b94	-0.09279552
209	0xbebcba23	-0.3686076
210	0xbcf4894d	-0.029850626
211	0xbe1bd379	-0.15217389
212	0x3eabe65a	0.33574182
213	0x3e028ed0	0.12749791
214	0x3cd22226	0.025651049
215	0xbd826127	-0.063661866
216	0x3eafd16a	0.34339458
217	0x3e0ce559	0.13759364
218	0xbd9499cf	-0.07255899
219	0xbe59077a	-0.21194258
220	0xbf01b18c	-0.5066154
221	0x3daaafb7	0.08334296
222	0x3df803bc	0.12110087
223	0x3e740ae5	0.23832281
224	0xbb417312	-0.002951805
225	0x3d9f8344	0.07788709
226	0xbea380fa	-0.3193434
227	0xbd88751e	-0.06662963
228	0x3e8dabc6	0.27670115
229	0xbce6ae10	-0.028159171
230	0x3e035a9b	0.12827532
231	0xbea10d78	-0.31455588
232	0xbd4c3542	-0.049855478
233	0x3dd466aa	0.10371144
234	0xbeaddef9	-0.33959177
235	0x3d37230d	0.04471116
236	0x3e12196c	0.1426751
237	0xbe1fb982	-0.1559811
238	0x3e0ca2c6	0.13733968
239	0x3e538c2a	0.20658937
240	0xbceea2af	-0.029130308
241	0xbe81c8b3	-0.25348434
242	0xbd294bcd	-0.041332055
243	0x3eb2efa4	0.34948456
244	0x3e763e4b	0.240472
245	0x3e4105ff	0.18849944
246	0xbd133886	-0.035942577
247	0x3e896ed1	0.2684236
248	0x3e1eef3d	0.1552095
249	0x3e7f2609	0.24916853
250	0xbe82ae60	-0.25523663
251	0x3e8ea414	0.27859557
252	0x3df52852	0.11970581
253	0xbe191d18	-0.14952505
254	0x3ed4d8ac	0.41571558
255	0xbe1e701f	-0.15472458

linear1.bias f4 [256]
0	0x3da86c16	0.08223741
1	0x3cc4d4c9	0.024027245
2	0xbcf3b907	-0.029751314
3	0x3e039c84	0.12852675
4	0x3d972754	0.07380548
5	0xbce952b8	-0.028481826
6	0xbe2e491d	-0.17020078
7	0x3e2e9456	0.17048773
8	0x3e028d67	0.12749253
9	0xbc4b8949	-0.012422868
10	0xbe5edb7f	-0.21763419
11	0xbd1d92bd	-0.03847002
12	0x3ea9c728	0.33159757
13	0xbe290ca0	-0.16508722
14	0x3e86baa6	0.26314276
15	0x3d91ca11	0.07118619
16	0xbb5ec716	-0.0033993176
17	0x3e8f0ffd	0.27941886
18	0x3ec18531	0.3779693
19	0x3e4a7ffd	0.19775386
20	0x3c082f1e	0.008312015
21	0x3ec5b047	0.3861105
22	0x3e05f8c5	0.1308318
23	0x3e27e5c3	0.16396241
24	0x3e9014d4	0.2814089
25	0x3bee90c8	0.007280443
26	0x3ddec601	0.1087761
27	0x3e136702	0.14394763
28	0x3e7f6d26	0.2494398
29	0x3effa57b	0.4993094
30	0x3e8d9b54	0.27657568
31	0x3e8082f2	0.25099903
32	0x3e548c3b	0.20756619
33	0x3e7dc763	0.24783091
34	0xbe670db8	-0.22563827
35	0xbcfed685	-0.03110815
36	0xbccf21b7	-0.025284631
37	0x3deee89e	0.11665462
38	0xbd414cb3	-0.047192287
39	0xbc4a35c7	-0.012341923
40	0x3eb46e9b	0.35240635
41	0x3ea5e78e	0.32403225
42	0x3d8c652d	0.06855235
43	0x3ea400a1	0.3203173
44	0x3de720b3	0.11285534
45	0xbd2707ac	-0.0407788
46	0x3eaf2121	0.34204963
47	0xbd94653e	-0.07245873
48	0x3dc74a4c	0.09730968
49	0xbdc8ff50	-0.09814322
50	0xbe02e5f9	-0.1278304
51	0x3dfd4cde	0.12368177
52	0x3e4aa2b0	0.19788623
53	0xbd5b9654	-0.05361016
54	0xbe02829f	-0.1274514
55	0xbdb4268b	-0.08796414
56	0xbd91c102	-0.071168914
57	0xbd6f28a1	-0.058388356
58	0x3e4f8484	0.20265394
59	0xbe8d9813	-0.27655086
60	0x3e9ec5d4	0.31010306
61	0xbdcf7fcc	-0.10131797
62	0xbc5b2343	-0.013375106
63	0xbdd0707e	-0.10177706
64	0xbdcd728a	-0.10031612
65	0x3e91f559	0.28507498
66	0x3ec3cc59	0.38241842
67	0x3e2b7e49	0.16747393
68	0x3df19ee2	0.117978826
69	0x3e399af1	0.18125512
70	0x3e95493b	0.29157433
71	0x3e03f64c	0.12886924
72	0xbc33bf06	-0.0109708365
73	0x3da5214d	0.08062992
74	0xbe93b637	-0.28849956
75	0xbd81e737	-0.06342929
76	0xbe1a2438	-0.15052879
77	0x3cc3b03b	0.023887744
78	0x3e15500c	0.14581317
79	0xbe0d5aef	-0.1380422
80	0x3b8c52c5	0.004282328
81	0x3eb33397	0.35000297
82	0x3efcf55b	0.4940594
83	0x3e8ed009	0.27893093
84	0x3ec2d8e6	0.38056105
85	0x3e621b7d	0.22080798
86	0xbe983e79	-0.29735163
87	0xbc568b7a	-0.013094777
88	0x3ead71c6	0.33875865
89	0x3e200d66	0.15630111
90	0xbe6b114c	-0.22955817
91	0xbe7eb7e6	-0.24874839
92	0xbdb181a8	-0.08667308
93	0x3e104993	0.14090566
94	0x3e50cb9d	0.20390172
95	0x3da94909	0.082658835
96	0x3e445b6e	0.19175503
97	0x3e4e40cd	0.20141907
98	0x3d293d47	0.041318204
99	0x3d5c4e65	0.0537857
100	0x3e45417b	0.1926326
101	0x3e980a06	0.29695147
102	0x3e98f28a	0.29872543
103	0x3e1ed8fe	0.15512463
104	0xbcb2bbb8	-0.021818027
105	0x3ee3bb5a	0.44478875
106	0x3d80561e	0.062664255
107	0x3eb3a4fb	0.35086808
108	0x3d302ac9	0.043009553
109	0x3e492a84	0.19645125
110	0x3cf27b73	0.02959988
111	0xbe5756a1	-0.2102914
112	0x3e943a28	0.2895062
113	0x3e4832eb	0.19550674
114	0x3e23a4ef	0.15980886
115	0x3db18fcb	0.086700045
116	0x3deb074b	0.114760004
117	0x3e27ecda	0.16398945
118	0x3e999b7e	0.30001444
119	0x3c22abef	0.0099286875
120	0x3e120c5e	0.1426253
121	0xbdfadf53	-0.12249627
122	0x3c0a8dcc	0.008456659
123	0x3e1464da	0.14491597
124	0x3e5c76b6	0.2152966
125	0x3c7440fd	0.014908073
126	0xbdc1e1cc	-0.094668955
127	0x3d705bd9	0.058681343
128	0x3e9198f9	0.2843702
129	0x3e6c1748	0.23055756
130	0x3d854516	0.06507318
131	0xbe101ec3	-0.14074235
132	0xbd1cc3b3	-0.03827257
133	0xbe6cd587	-0.23128329
134	0x3eae0266	0.33986205
135	0xbe195459	-0.14973582
136	0x3da47d6c	0.08031735
137	0x3ec75dbd	0.38938704
138	0xbde6508b	-0.11245831
139	0x3e55f0cf	0.20892642
140	0xbe6f588a	-0.23373619
141	0xbe37ae4f	-0.17937587
142	0x3e2b8345	0.16749294
143	0x3e983491	0.29727605
144	0xbe15b753	-0.14620714
145	0xbe1b7796	-0.15182337
146	0x3dcab9a1	0.09898687
147	0x3c74e80b	0.0149479015
148	0x3e98e1d4	0.29859793
149	0x3eae22de	0.34010977
150	0x3cacfe5a	0.021117378
151	0x3e6b92f1	0.23005272
152	0xbe51d240	-0.2049036
153	0x3d0fda07	0.035120036
154	0xbdcf1562	-0.101115
155	0xbd0f318d	-0.034959365
156	0xbe7e4d18	-0.24834096
157	0x3e259fdd	0.16174264
158	0x3d9b601c	0.07586691
159	0x3eb14e75	0.3463017
160	0x3cbd18f8	0.023083195
161	0x3d8e99a5	0.06962899
162	0x3dbb2bdf	0.09139227
163	0xbe8816db	-0.26579937
164	0x3d903bd9	0.07042665
165	0xbd119fc7	-0.035552766
166	0xbc889f58	-0.016677544
167	0x3d7b0fb4	0.061294273
168	0xbe6a687c	-0.2289142
169	0x3ea65a97	0.3249099
170	0xbdb58aa7	-0.088643365
171	0x3e9088b9	0.2822931
172	0x3c5291c3	0.012852135
173	0x3ed39a58	0.41328692
174	0xbda1a10e	-0.07892047
175	0x3e890ffc	0.26770008
176	0x3e528d1e	0.20561644
177	0xbe833038	-0.25622725
178	0x3d42f593	0.04759748
179	0x3d14c28d	0.03631835
180	0x3d8baae1	0.06819702
181	0x3e27d26c	0.16388863
182	0x3d7ff1fa	0.062486626
183	0x3e478dfc	0.19487756
184	0x3d817b43	0.063223384
185	0x3e3755de	0.1790385
186	0x3e8da48a	0.27664596
187	0xbcbec53d	-0.02328741
188	0xbc12e49b	-0.008965637
189	0x3ec1bdc3	0.3784009
190	0x3e24e2e3	0.16102175
191	0x3db3a103	0.08770945
192	0x3df1b9e0	0.11803031
193	0x3d49d39d	0.049274076
194	0xbd84e99f	-0.06489872
195	0xbd1033c4	-0.035205618
196	0xbcd8b5f2	-0.026453946
197	0x3e87592b	0.26435217
198	0x3e6787f9	0.22610463
199	0x3d91e666	0.07124023
200	0x3d53c16c	0.051698133
201	0xbd67a86e	-0.05655711
202	0xbd20a44e	-0.039219193
203	0x3d94b3c7	0.07260852
204	0x3e8eba72	0.2787662
205	0x3c0bad3f	0.008525192
206	0xbd7708af	-0.060311016
207	0x3e8603ae	0.26174682
208	0xbd599500	-0.053120613
209	0x3d965d34	0.07341996
210	0xbe66670a	-0.22500244
211	0x3e10d767	0.1414467
212	0x3e38cdeb	0.18047301
213	0x3dbc8778	0.09205526
214	0x3ddc82f9	0.107671686
215	0x3de101d7	0.10986679
216	0x3df1f035	0.11813394
217	0xbbffdc60	-0.007808253
218	0x3e6d4b56	0.2317327
219	0x3e1af3ea	0.15132108
220	0x3ec7dcce	0.39035648
221	0xbe025536	-0.12727818
222	0x3d471e3a	0.04861281
223	0x3e36efdd	0.17864938
224	0xbe1fe92b	-0.1561629
225	0x3d082c06	0.03324511
226	0x3e5a6fee	0.2133176
227	0xbe18e878	-0.1493243
228	0xbd0efb58	-0.03490767
229	0xbdf5898a	-0.11989124
230	0x3d9e7399	0.07736892
231	0x3ed0e3ec	0.4079889
232	0x3c4be9a4	0.012445841
233	0x3e74fb8d	0.23924084
234	0xbd5334b4	-0.051563933
235	0x3de25794	0.110518605
236	0x3e00fe85	0.12597091
237	0x3c474dce	0.012164546
238	0x3e54b3e0	0.20771742
239	0x3df79552	0.120890275
240	0x3e962628	0.29325986
241	0xbe7160b5	-0.23572047
242	0x3e3fffcc	0.18749923
243	0x3c177c67	0.009245968
244	0x3e174d7f	0.14775656
245	0x3e4f990f	0.20273231
246	0x3e1b0094	0.1513694
247	0x3c18da2b	0.009329359
248	0xbdaf78f9	-0.085679956
249	0xbe46a4af	-0.1939876
250	0x3dffbfbf	0.124877445
251	0x3d84e9c5	0.064899005
252	0x3b898ec1	0.004197926
253	0xbda28ad1	-0.079366334
254	0xbcaf941b	-0.021432927
255	0x3e35ea36	0.17765126

linear2.weight f4 [4, 256]
0	0x3dc035bd	0.0938525
1	0x3e1e4043	0.15454201
2	0xbcaaebf6	-0.020864468
3	0x3dcee815	0.1010286
4	0xbdd87714	-0.10569587
5	0xbcf434e2	-0.029810373
6	0x3bae1f0c	0.0053137597
7	0x3e35798e	0.1772215
8	0xbd7e0015	-0.062011797
9	0x3d5cc11a	0.053895094
10	0x3cafaeed	0.021445716
11	0xbca95e70	-0.020674914
12	0x3c7bfca4	0.015380058
13	0xbce75a08	-0.028241172
14	0x3dab1fef	0.083557
15	0x3d5c6155	0.05380376
16	0xbda31535	-0.07963029
17	0x3e04895a	0.1294302
18	0xbdd65703	-0.10465815
19	0xbe04ad52	-0.12956741
20	0x3ddbd63f	0.107342236
21	0xbce3350c	-0.027735256
22	0x3bd6aa5c	0.00655107
23	0xbe287042	-0.16449073
24	0xbdb84d1e	-0.08999084
25	0xbd47c6fe	-0.048773758
26	0x3de8978d	0.11357031
27	0xbbb3277b	-0.005467353
28	0xbd1c7cdd	-0.038205016
29	0xbe2930c5	-0.1652251
30	0xbd1b0bb6	-0.037852965
31	0x3c55793a	0.013029391
32	0xbda48cf8	-0.080347
33	0xbd5dbab4	-0.054133132
34	0x3daefa7f	0.08543872
35	0x3e046fa1	0.12933208
36	0xbdb87710	-0.09007084
37	0x3cd697aa	0.026195366
38	0x3e104bbd	0.14091392
39	0xbca64049	-0.020294325
40	0xbd9106f7	-0.070814066
41	0x3ddf5a41	0.109058864
42	0xbcb0e4a6	-0.021593403
43	0xbe397add	-0.18113275
44	0xbd81aff6	-0.0633239
45	0xbdddb7af	-0.108260505
46	0xbd89043c	-0.06690261
47	0xbd9377b2	-0.072005644
48	0xbd97bd95	-0.07409207
49	0xbd529c08	-0.051418334
50	0x3d3f7a61	0.04674757
51	0x3d5cb2f5	0.053881604
52	0xbd8e07d1	-0.069350846
53	0x3e983422	0.29727274
54	0x3e0260b0	0.12732196
55	0xbda86fcf	-0.08224451
56	0x3dfa04cf	0.122079484
57	0xbd6e9fdd	-0.058257926
58	0x3e79d747	0.24398528
59	0xbd3a3b42	-0.04546667
60	0xbda85fb3	-0.08221378
61	0xbca018c9	-0.019543068
62	0xbd2841aa	-0.041078247
63	0x3de5fd7d	0.1122999
64	0x3c6c1451	0.014409141
65	0x3c432783	0.011911276
66	0x3b9b9b7e	0.0047487607
67	0x3df62d7c	0.12020394
68	0xbd2813cd	-0.04103451
69	0x3c865570	0.016398162
70	0xbd87b6e9	-0.06626684
71	0x3dfe86f2	0.124280825
72	0x3c0759b6	0.008261135
73	0x3dfd9059	0.12381048
74	0xbd3c77d8	-0.04601273
75	0x3d1da4ed	0.038487364
76	0xbb813950	-0.0039435998
77	0x3dee3413	0.11631026
78	0xbe2bac24	-0.16764885
79	0xbdb40063	-0.08789136
80	0x3df979b8	0.12181419
81	0x3caccebe	0.021094676
82	0xbe279180	-0.16364098
83	0xbe07004e	-0.1318371
84	0x3b381338	0.0028087627
85	0xbd18ebc7	-0.03733423
86	0xbc9c6584	-0.019091375
87	0x3e40ca01	0.18827058
88	0xbd1cc67a	-0.03827522
89	0x3d867d2f	0.065668456
90	0xbc077587	-0.008267767
91	0x3d7db1a2	0.061936982
92	0xbd7cf6a9	-0.06175867
93	0x3c3b4fa2	0.01143256
94	0xbd78f143	-0.06077696
95	0xbc3af938	-0.011411957
96	0x3e04f873	0.12985401
97	0x3e734db5	0.23760112
98	0x3d8ba338	0.06818241
99	0x3e600f00	0.21880722
100	0xbc7907cc	-0.015199613
101	0x3ce76b16	0.028249305
102	0x3d1a7468	0.03770867
103	0x3dcee0bc	0.101014584
104	0x3e56998f	0.20957015
105	0x3e4f522c	0.2024619
106	0x3e05d3dc	0.13069099
107	0x3e026640	0.12734318
108	0xbe257439	-0.16157617
109	0xbdfe0f4b	-0.12405261
110	0x3c7a38b7	0.015272311
111	0xbdb01c7d	-0.08599184
112	0xbda3d2b5	-0.079991736
113	0xbd3eb014	-0.04655464
114	0xbd7b1fbb	-0.061309557
115	0x3ac62af4	0.0015119002
116	0xbcd5facf	-0.026120571
117	0x3e253efe	0.16137311
118	0x3d4356cc	0.047690198
119	0x3e06bf87	0.13159
120	0xbc6ce4b1	-0.014458821
121	0x3da9e9cd	0.08296547
122	0xbd2cd633	-0.042196464
123	0x3d95e59e	0.07319187
124	0xbd8a1b50	-0.06743491
125	0xbda92e64	-0.082608014
126	0x3e24bf05	0.16088493
127	0xbd38c951	-0.045113865
128	0x3ced0911	0.028934987
129	0x3d58d53e	0.05293774
130	0xbc3345c8	-0.01094193
131	0x3d3787f2	0.044807382
132	0xbe1d5144	-0.15363032
133	0xbd56f482	-0.052479275
134	0xbd90e162	-0.07074238
135	0xbb6eb812	-0.0036425632
136	0x3d759299	0.05995426
137	0x3c4cb16b	0.012493472
138	0x3ae87180	0.0017734021
139	0x3d566410	0.05234152
140	0x3d02ba08	0.031915694
141	0xbdbdaa2f	-0.092609756
142	0xbd294cad	-0.04133289
143	0x3db76cd7	0.089563064
144	0x3e57cfb4	0.21075326
145	0xbd35b7b9	-0.044364665
146	0x3c0ba4cc	0.008523177
147	0x3e904fc2	0.2818585
148	0x3d85cd88	0.065333426
149	0x3e0bddec	0.13658875
150	0xbc680517	-0.01416137
151	0xbd35c426	-0.044376515
152	0x3d641c45	0.055691022
153	0x3d2370f9	0.03990266
154	0xbce09d6c	-0.027418815
155	0xbdab77dc	-0.08372471
156	0x3d5f67ee	0.054542474
157	0xbd5bac3c	-0.053631052
158	0x3db80fa4	0.08987358
159	0xbcb511e2	-0.022103254
160	0x3daca229	0.08429367
161	0x3e7d1dd3	0.24718408
162	0xbdca5a60	-0.09880519
163	0xbd5ed722	-0.054404385
164	0x3cded6bc	0.027202003
165	0xbde1c7fe	-0.110244736
166	0x3e52e88f	0.20596527
167	0x3deef82a	0.11668427
168	0x3d15c3fb	0.036563855
169	0xbd127cd9	-0.035763595
170	0xbde700da	-0.11279459
171	0x3e874282	0.2641793
172	0x3d37b069	0.044845972
173	0xbe2b9463	-0.16755824
174	0xbdff884d	-0.12477169
175	0x3ce5e45c	0.028062992
176	0x3de51c8b	0.11187085
177	0x3cab71f7	0.020928366
178	0xbda2cbf2	-0.07949056
179	0x3df72828	0.12068206
180	0xbd35ddf2	-0.044401117
181	0x3dabe6cb	0.0839363
182	0x3dff0f48	0.124540865
183	0x3d3161a2	0.043306
184	0xbc8fd567	-0.017557813
185	0x3e1f6c27	0.155686
186	0xbce25bc8	-0.027631655
187	0xbda188cf	-0.07887422
188	0x3b633fcb	0.0034675475
189	0xbc5bf65b	-0.013425435
190	0x3d2c99fa	0.04213903
191	0xbc952dc6	-0.018210303
192	0x3e399f33	0.18127136
193	0xbdf39285	-0.11893181
194	0x3db4b632	0.088238135
195	0xbc84a03c	-0.016189687
196	0xbcb9d338	-0.022683725
197	0x3c357b33	0.011076736
198	0x3d380afb	0.044932347
199	0x3ed76a6f	0.4207339
200	0xbd3794b6	-0.044819556
201	0xbdf1928c	-0.1179553
202	0x3e03cd2d	0.12871237
203	0xbe113d37	-0.14183508
204	0xbca3fc99	-0.020017909
205	0x3d8062a2	0.06268813
206	0x3e31da83	0.17368512
207	0xbe118f3a	-0.14214793
208	0xbdce2bff	-0.10066985
209	0x3dd71a5b	0.10503074
210	0x3d326ae3	0.043558966
211	0x3dbfd557	0.09366863
212	0xbac54b5e	-0.0015052368
213	0x3d3d5d43	0.04623152
214	0xbc876c8c	-0.016531251
215	0xbd323ed5	-0.043516953
216	0xbda28273	-0.079350375
217	0x3e18a3f9	0.149063
218	0x3d52bbc7	0.05144861
219	0xbd0252ea	-0.031817354
220	0xbd12868e	-0.035772853
221	0xbd4f32dd	-0.050585616
222	0x3c2932e3	0.010327074
223	0xbd43f330	-0.047839344
224	0x3d0c7e94	0.0343004
225	0xbdd269ed	-0.1027411
226	0xbd4f0c7b	-0.05054901
227	0xbd59f853	-0.053215336
228	0x3dfc472a	0.12318261
229	0xbe2bc49e	-0.16774222
230	0xbddbf95d	-0.10740922
231	0xbd88a850	-0.06672728
232	0xbd2d84d3	-0.042363
233	0xbd0a86b3	-0.033819865
234	0x3e147a54	0.1449979
235	0x3e23b8c5	0.15988453
236	0x3e0d8ad2	0.13822487
237	0x3dc90738	0.0981583
238	0x3d9524eb	0.07282432
239	0x3dcbabcc	0.09944877
240	0x3d4cb360	0.049975753
241	0x3d00da30	0.03145808
242	0x3dacd4ab	0.08439001
243	0xbe0a4cf6	-0.13505921
244	0xbd087f4d	-0.03332453
245	0xbc93fa6f	-0.018063752
246	0xbc630699	-0.0138565535
247	0xbd522e2a	-0.051313557
248	0x3ddb5a23	0.107105516
249	0x3e12621e	0.14295241
250	0xbdd9072d	-0.10597072
251	0xba3c6fd4	-0.00071882945
252	0x3ca4956f	0.020090787
253	0xbd970afc	-0.07375142
254	0x3e24ed49	0.16106142
255	0x3caf933a	0.021432508

linear2.bias f4 [4]
0	0x3c64a526	0.01395539
1	0xbc8c18fd	-0.01710176
2	0x3d9b726f	0.07590186
3	0x3d9ea94e	0.07747136
